…
mstrong/opt/miniconda3/envs/ds37/lib/python3.7/site-packages/tensorflow/python/ops/resource_variable_ops.py:435: colocate_with (from tensorflow.python.framework.ops) is deprecated and will be removed in a future version. Instructions for updating: Colocations handled automatically by placer. Model: &#34;ncaa_embeddings_joint&#34; __________________________________________________________________________________________________ Layer (type) Output Shape Param # Connected to ================================================================================================== loc_input (InputLayer) (None, 2) 0 __________________________________________________________________________________________________ team_input (InputLayer) (None, 2) 0 __________________________________________________________________________________________________ loc_encoding (Embedding) (None, 2, 1) 3 loc_input[0][0] __________________________________________________________________________________________________ team_encoding (Embedding) (None, 2, 8) 92752 team_input[0][0] __________________________________________________________________________________________________ lambda_1 (Lambda) (None, 2, 8) 0 loc_encoding[0][0] __________________________________________________________________________________________________ multiply_1 (Multiply) (None, 2, 8) 0 team_encoding[0][0] lambda_1[0][0] __________________________________________________________________________________________________ dropout_1 (Dropout) (None, 2, 8) 0 multiply_1[0][0] __________________________________________________________________________________________________ lambda_2 (Lambda) (None, 8) 0 dropout_1[0][0] __________________________________________________________________________________________________ lambda_3 (Lambda) (None, 8) 0 dropout_1[0][0] __________________________________________________________________________________________________ dense_1 (Dense) (None, 20) 180 lambda_2[0][0] lambda_3[0][0] __________________________________________________________________________________________________ dropout_2 (Dropout) (None, 20) 0 dense_1[0][0] dense_1[1][0] __________________________________________________________________________________________________ dense_2 (Dense) (None, 10) 210 dropout_2[0][0] dropout_2[1][0] __________________________________________________________________________________________________ dropout_3 (Dropout) (None, 10) 0 dense_2[0][0] dense_2[1][0] __________________________________________________________________________________________________ subtract_1 (Subtract) (None, 10) 0 dropout_3[0][0] dropout_3[1][0] __________________________________________________________________________________________________ win_output (Dense) (None, 1) 10 subtract_1[0][0] __________________________________________________________________________________________________ point_output (Dense) (None, 1) 10 subtract_1[0][0] ================================================================================================== Total params: 93,165 Trainable params: 93,165 Non-trainable params: 0 __________________________________________________________________________________________________ . Training the model . The model is trained using regular season data and validated using secondary tournament dat
…
